…
user":{"displayName":"Waqas Ali","userId":"11561624346232245804"}},"outputId":"df0183b7-8eec-44e7-fe7a-4f675ec8611e"},"execution_count":7,"outputs":[{"output_type":"stream","name":"stdout","text":["Model: \"encoder\"\n","_________________________________________________________________\n"," Layer (type)                Output Shape              Param #   \n","=================================================================\n"," input_1 (InputLayer)        [(None, 120, 120, 3)]     0         \n","                                                                 \n"," conv2d (Conv2D)             (None, 60, 60, 128)       3584      \n","                                                                 \n"," max_pooling2d (MaxPooling2D  (None, 30, 30, 128)      0         \n"," )                                                               \n","                                                                 \n"," conv2d_1 (Conv2D)           (None, 15, 15, 256)       295168    \n","                                                                 \n"," max_pooling2d_1 (MaxPooling  (None, 8, 8, 256)        0         \n"," 2D)                                                             \n","                                                                 \n"," conv2d_2 (Conv2D)           (None, 4, 4, 512)         1180160   \n","                                                                 \n"," max_pooling2d_2 (MaxPooling  (None, 2, 2, 512)        0         \n"," 2D)                                                             \n","                                                                 \n"," conv2d_3 (Conv2D)           (None, 1, 1, 1024)        4719616   \n","                                                                 \n"," max_pooling2d_3 (MaxPooling  (None, 1, 1, 1024)       0         \n"," 2D)                                                             \n","                                                                 \n"," conv2d_4 (Conv2D)           (None, 1, 1, 2048)        18876416  \n","                                                                 \n"," max_pooling2d_4 (MaxPooling  (None, 1, 1, 2048)       0         \n"," 2D)                                                             \n","                                                                 \n"," flatten (Flatten)           (None, 2048)              0         \n","                                                                 \n"," dense (Dense)               (None, 51200)             104908800 \n","                                                                 \n"," reshape (Reshape)           (None, 5, 5, 2048)        0         \n","                                                                 \n","=================================================================\n","Total params: 129,983,744\n","Trainable params: 129,983,744\n","Non-trainable params: 0\n","_________________________________________________________________\n"]}]},{"cell_type":"code","source":["decoder_input= layers.Input(shape=((5,5,2048)))\n"
…
user":{"displayName":"Waqas Ali","userId":"11561624346232245804"}},"outputId":"4459a0f4-2b7b-4dbc-c5ec-aa7388f088da"},"execution_count":8,"outputs":[{"output_type":"stream","name":"stdout","text":["Model: \"decoder\"\n","_________________________________________________________________\n"," Layer (type)                Output Shape              Param #   \n","=================================================================\n"," input_2 (InputLayer)        [(None, 5, 5, 2048)]      0         \n","                                                                 \n"," conv2d_5 (Conv2D)           (None, 3, 3, 2048)        37750784  \n","                                                                 \n"," up_sampling2d (UpSampling2D  (None, 6, 6, 2048)       0         \n"," )                                                               \n","                                                                 \n"," conv2d_6 (Conv2D)           (None, 3, 3, 1024)        18875392  \n","                                                                 \n"," up_sampling2d_1 (UpSampling  (None, 6, 6, 1024)       0         \n"," 2D)                                                             \n","                                                                 \n"," conv2d_7 (Conv2D)           (None, 3, 3, 512)         4719104   \n","                                                                 \n"," up_sampling2d_2 (UpSampling  (None, 6, 6, 512)        0         \n"," 2D)                                                             \n","                                                                 \n"," conv2d_8 (Conv2D)           (None, 3, 3, 256)         1179904   \n","                                                                 \n"," up_sampling2d_3 (UpSampling  (None, 6, 6, 256)        0         \n"," 2D)                                                             \n","                                                                 \n"," conv2d_9 (Conv2D)           (None, 3, 3, 128)         295040    \n","                                                                 \n"," flatten_1 (Flatten)         (None, 1152)              0         \n","                                                                 \n"," dense_1 (Dense)             (None, 43200)             49809600  \n","                                                                 \n"," reshape_1 (Reshape)         (None, 120, 120, 3)       0         \n","                                                                 \n","=================================================================\n","Total params: 112,629,824\n","Trainable params: 112,629,824\n","Non-trainable params: 0\n","_________________________________________________________________\n"]}]},{"cell_type":"code","source":["auto_input = layers.Input(shape=(120,120,3))\n","e
…
